Setting up environment...
Environment set up.
Training convolutional variational multidecoder...
Constructing model...
Done constructing model.
CNNVariationalMultidecoder (
  (encoder_conv): Sequential (
    (conv2d_0): Conv2d(1, 128, kernel_size=(3, 3), stride=(1, 1))
    (batchnorm2d_0): BatchNorm2d(128, eps=1e-05, momentum=0.1, affine=True)
    (Tanh_0): Tanh ()
    (maxpool2d_0): MaxPool2d (size=(1, 3), stride=(1, 3), dilation=(1, 1))
    (conv2d_1): Conv2d(128, 128, kernel_size=(3, 3), stride=(1, 1))
    (batchnorm2d_1): BatchNorm2d(128, eps=1e-05, momentum=0.1, affine=True)
    (Tanh_1): Tanh ()
    (maxpool2d_1): MaxPool2d (size=(1, 3), stride=(1, 3), dilation=(1, 1))
  )
  (encoder_fc): Sequential (
    (lin_0): Linear (7168 -> 2048)
    (batchnorm1d_0): BatchNorm1d(2048, eps=1e-05, momentum=0.1, affine=True)
    (Tanh_0): Tanh ()
    (lin_1): Linear (2048 -> 2048)
    (batchnorm1d_1): BatchNorm1d(2048, eps=1e-05, momentum=0.1, affine=True)
    (Tanh_1): Tanh ()
  )
  (decoder_fc_ihm): Sequential (
    (lin_0): Linear (1024 -> 2048)
    (batchnorm1d_0): BatchNorm1d(2048, eps=1e-05, momentum=0.1, affine=True)
    (Tanh_0): Tanh ()
    (lin_1): Linear (2048 -> 2048)
    (batchnorm1d_1): BatchNorm1d(2048, eps=1e-05, momentum=0.1, affine=True)
    (Tanh_1): Tanh ()
    (lin_final): Linear (2048 -> 7168)
    (Tanh_final): Tanh ()
  )
  (decoder_deconv_ihm): Sequential (
    (maxunpool2d_0): MaxUnpool2d (size=(1, 3), stride=(1, 3), padding=(0, 0))
    (conv2d_0): Conv2d(128, 128, kernel_size=(3, 3), stride=(1, 1), padding=(2, 2))
    (batchnorm2d_0): BatchNorm2d(128, eps=1e-05, momentum=0.1, affine=True)
    (Tanh_0): Tanh ()
    (maxunpool2d_1): MaxUnpool2d (size=(1, 3), stride=(1, 3), padding=(0, 0))
    (conv2d_1): Conv2d(128, 1, kernel_size=(3, 3), stride=(1, 1), padding=(2, 2))
    (batchnorm2d_1): BatchNorm2d(1, eps=1e-05, momentum=0.1, affine=True)
    (Tanh_1): Tanh ()
  )
  (decoder_fc_sdm1): Sequential (
    (lin_0): Linear (1024 -> 2048)
    (batchnorm1d_0): BatchNorm1d(2048, eps=1e-05, momentum=0.1, affine=True)
    (Tanh_0): Tanh ()
    (lin_1): Linear (2048 -> 2048)
    (batchnorm1d_1): BatchNorm1d(2048, eps=1e-05, momentum=0.1, affine=True)
    (Tanh_1): Tanh ()
    (lin_final): Linear (2048 -> 7168)
    (Tanh_final): Tanh ()
  )
  (decoder_deconv_sdm1): Sequential (
    (maxunpool2d_0): MaxUnpool2d (size=(1, 3), stride=(1, 3), padding=(0, 0))
    (conv2d_0): Conv2d(128, 128, kernel_size=(3, 3), stride=(1, 1), padding=(2, 2))
    (batchnorm2d_0): BatchNorm2d(128, eps=1e-05, momentum=0.1, affine=True)
    (Tanh_0): Tanh ()
    (maxunpool2d_1): MaxUnpool2d (size=(1, 3), stride=(1, 3), padding=(0, 0))
    (conv2d_1): Conv2d(128, 1, kernel_size=(3, 3), stride=(1, 1), padding=(2, 2))
    (batchnorm2d_1): BatchNorm2d(1, eps=1e-05, momentum=0.1, affine=True)
    (Tanh_1): Tanh ()
  )
  (latent_mu): Sequential (
    (lin): Linear (2048 -> 1024)
    (Tanh): Tanh ()
  )
  (latent_logvar): Sequential (
    (lin): Linear (2048 -> 1024)
    (Tanh): Tanh ()
  )
)
Setting up data...
Setting up training datasets...
Using 2407138 training features (9403 batches) for class ihm
Using 2407138 training features (9403 batches) for class sdm1
…
