Running training with mode ae
Noising 25.000% of input features
Constructing model...
Done constructing model.
CNNMultidecoder(
  (encoder_conv): Sequential(
    (conv2d_0): Conv2d (1, 256, kernel_size=(3, 3), stride=(1, 1))
    (batchnorm2d_0): BatchNorm2d(256, eps=1e-05, momentum=0.1, affine=True)
    (ReLU_0): ReLU()
    (maxpool2d_0): MaxPool2d(kernel_size=(1, 3), stride=(1, 3), dilation=(1, 1))
    (conv2d_1): Conv2d (256, 256, kernel_size=(3, 3), stride=(1, 1))
    (batchnorm2d_1): BatchNorm2d(256, eps=1e-05, momentum=0.1, affine=True)
    (ReLU_1): ReLU()
    (maxpool2d_1): MaxPool2d(kernel_size=(1, 3), stride=(1, 3), dilation=(1, 1))
  )
  (encoder_fc): Sequential(
    (lin_0): Linear(in_features=14336, out_features=1024)
    (batchnorm1d_0): BatchNorm1d(1024, eps=1e-05, momentum=0.1, affine=True)
    (ReLU_0): ReLU()
    (lin_final): Linear(in_features=1024, out_features=256)
    (ReLU_final): ReLU()
  )
  (decoder_fc_ihm): Sequential(
    (ReLU_0): ReLU()
    (lin_0): Linear(in_features=256, out_features=1024)
    (batchnorm1d_0): BatchNorm1d(1024, eps=1e-05, momentum=0.1, affine=True)
    (ReLU_final): ReLU()
    (lin_final): Linear(in_features=1024, out_features=14336)
  )
  (decoder_deconv_ihm): Sequential(
    (ReLU_0): ReLU()
    (maxunpool2d_0): MaxUnpool2d(kernel_size=(1, 3), stride=(1, 3), padding=(0, 0))
    (conv2d_0): Conv2d (256, 256, kernel_size=(3, 3), stride=(1, 1), padding=(2, 2))
    (batchnorm2d_0): BatchNorm2d(256, eps=1e-05, momentum=0.1, affine=True)
    (ReLU_1): ReLU()
    (maxunpool2d_1): MaxUnpool2d(kernel_size=(1, 3), stride=(1, 3), padding=(0, 0))
    (conv2d_1): Conv2d (256, 1, kernel_size=(3, 3), stride=(1, 1), padding=(2, 2))
  )
  (decoder_fc_sdm1): Sequential(
    (ReLU_0): ReLU()
    (lin_0): Linear(in_features=256, out_features=1024)
    (batchnorm1d_0): BatchNorm1d(1024, eps=1e-05, momentum=0.1, affine=True)
    (ReLU_final): ReLU()
    (lin_final): Linear(in_features=1024, out_features=14336)
  )
  (decoder_deconv_sdm1): Sequential(
    (ReLU_0): ReLU()
    (maxunpool2d_0): MaxUnpool2d(kernel_size=(1, 3), stride=(1, 3), padding=(0, 0))
    (conv2d_0): Conv2d (256, 256, kernel_size=(3, 3), stride=(1, 1), padding=(2, 2))
    (batchnorm2d_0): BatchNorm2d(256, eps=1e-05, momentum=0.1, affine=True)
    (ReLU_1): ReLU()
    (maxunpool2d_1): MaxUnpool2d(kernel_size=(1, 3), stride=(1, 3), padding=(0, 0))
    (conv2d_1): Conv2d (256, 1, kernel_size=(3, 3), stride=(1, 1), padding=(2, 2))
  )
)
Model has 46644226 trainable parameters
Setting up data...
Setting up training datasets...
Using 2407138 training features (9403 batches) for class ihm
Using 2407138 training features (9403 batches) for class sdm1
…
