Running training with mode ae
Noising 25.000% of input features
Constructing model...
Done constructing model.
CNNMultidecoder(
  (encoder_conv): Sequential(
    (conv2d_0): Conv2d (1, 32, kernel_size=(5, 5), stride=(1, 1))
    (ReLU_0): ReLU()
    (maxpool2d_0): MaxPool2d(kernel_size=(1, 2), stride=(1, 2), dilation=(1, 1))
  )
  (encoder_fc): Sequential(
    (lin_0): Linear(in_features=8512, out_features=1024)
    (ReLU_0): ReLU()
    (lin_1): Linear(in_features=1024, out_features=1024)
    (ReLU_1): ReLU()
    (lin_2): Linear(in_features=1024, out_features=1024)
    (ReLU_2): ReLU()
    (lin_final): Linear(in_features=1024, out_features=256)
    (ReLU_final): ReLU()
  )
  (decoder_fc_ihm): Sequential(
    (ReLU_0): ReLU()
    (lin_0): Linear(in_features=256, out_features=1024)
    (ReLU_1): ReLU()
    (lin_1): Linear(in_features=1024, out_features=1024)
    (ReLU_2): ReLU()
    (lin_2): Linear(in_features=1024, out_features=1024)
    (ReLU_final): ReLU()
    (lin_final): Linear(in_features=1024, out_features=8512)
  )
  (decoder_deconv_ihm): Sequential(
    (ReLU_0): ReLU()
    (maxunpool2d_0): MaxUnpool2d(kernel_size=(1, 2), stride=(1, 2), padding=(0, 0))
    (conv2d_0): Conv2d (32, 1, kernel_size=(5, 5), stride=(1, 1), padding=(4, 4))
  )
  (decoder_fc_sdm1): Sequential(
    (ReLU_0): ReLU()
    (lin_0): Linear(in_features=256, out_features=1024)
    (ReLU_1): ReLU()
    (lin_1): Linear(in_features=1024, out_features=1024)
    (ReLU_2): ReLU()
    (lin_2): Linear(in_features=1024, out_features=1024)
    (ReLU_final): ReLU()
    (lin_final): Linear(in_features=1024, out_features=8512)
  )
  (decoder_deconv_sdm1): Sequential(
    (ReLU_0): ReLU()
    (maxunpool2d_0): MaxUnpool2d(kernel_size=(1, 2), stride=(1, 2), padding=(0, 0))
    (conv2d_0): Conv2d (32, 1, kernel_size=(5, 5), stride=(1, 1), padding=(4, 4))
  )
)
Model has 33255682 trainable parameters
Setting up data...
Setting up training datasets...
Using 2407138 training features (9403 batches) for class ihm
…
