Running training with mode ae
Noising 25.000% of input features
Constructing model...
Done constructing model.
CNNAdversarialMultidecoder(
  (encoder_conv): Sequential(
    (conv2d_0): Conv2d (1, 256, kernel_size=(3, 3), stride=(1, 1))
    (SELU_0): SELU
    (maxpool2d_0): MaxPool2d(kernel_size=(1, 3), stride=(1, 3), dilation=(1, 1))
    (conv2d_1): Conv2d (256, 256, kernel_size=(3, 3), stride=(1, 1))
    (SELU_1): SELU
    (maxpool2d_1): MaxPool2d(kernel_size=(1, 3), stride=(1, 3), dilation=(1, 1))
  )
  (encoder_fc): Sequential(
    (lin_0): Linear(in_features=14336, out_features=2048)
    (SELU_0): SELU
    (lin_1): Linear(in_features=2048, out_features=2048)
    (SELU_1): SELU
    (lin_final): Linear(in_features=2048, out_features=256)
    (SELU_final): SELU
  )
  (decoder_fc_ihm): Sequential(
    (lin_0): Linear(in_features=256, out_features=2048)
    (SELU_0): SELU
    (lin_1): Linear(in_features=2048, out_features=2048)
    (SELU_1): SELU
    (lin_final): Linear(in_features=2048, out_features=14336)
    (SELU_final): SELU
  )
  (decoder_deconv_ihm): Sequential(
    (maxunpool2d_0): MaxUnpool2d(kernel_size=(1, 3), stride=(1, 3), padding=(0, 0))
    (conv2d_0): Conv2d (256, 256, kernel_size=(3, 3), stride=(1, 1), padding=(2, 2))
    (SELU_0): SELU
    (maxunpool2d_1): MaxUnpool2d(kernel_size=(1, 3), stride=(1, 3), padding=(0, 0))
    (conv2d_1): Conv2d (256, 1, kernel_size=(3, 3), stride=(1, 1), padding=(2, 2))
    (SELU_1): SELU
  )
  (decoder_fc_sdm1): Sequential(
    (lin_0): Linear(in_features=256, out_features=2048)
    (SELU_0): SELU
    (lin_1): Linear(in_features=2048, out_features=2048)
    (SELU_1): SELU
    (lin_final): Linear(in_features=2048, out_features=14336)
    (SELU_final): SELU
  )
  (decoder_deconv_sdm1): Sequential(
    (maxunpool2d_0): MaxUnpool2d(kernel_size=(1, 3), stride=(1, 3), padding=(0, 0))
    (conv2d_0): Conv2d (256, 256, kernel_size=(3, 3), stride=(1, 1), padding=(2, 2))
    (SELU_0): SELU
    (maxunpool2d_1): MaxUnpool2d(kernel_size=(1, 3), stride=(1, 3), padding=(0, 0))
    (conv2d_1): Conv2d (256, 1, kernel_size=(3, 3), stride=(1, 1), padding=(2, 2))
    (SELU_1): SELU
  )
  (adversary): Sequential(
    (lin_0): Linear(in_features=256, out_features=256)
    (Sigmoid_0): Sigmoid()
    (lin_final): Linear(in_features=256, out_features=1)
    (Sigmoid_final): Sigmoid()
  )
)
Model has 104120835 trainable parameters
Setting up data...
Setting up training datasets...
Using 2407138 training features (9403 batches) for class ihm
Using 2407138 training features (9403 batches) for class sdm1
Setting up dev datasets...
Using 249565 dev features (975 batches) for class ihm
Using 249565 dev features (975 batches) for class sdm1
…
